{"format": "graph-model", "generatedBy": "1.15.0", "convertedBy": "TensorFlow.js Converter v1.7.4r1", "userDefinedMetadata": {"signature": {"outputs": {"decoder/half/resize/ResizeBilinear:0": {"name": "decoder/half/resize/ResizeBilinear:0"}}}}, "modelTopology": {"node": [{"name": "im0", "op": "Placeholder", "attr": {"dtype": {"type": "DT_FLOAT"}, "shape": {"shape": {"dim": [{"size": "1"}, {"size": "384"}, {"size": "640"}, {"size": "3"}]}}}}, {"name": "encoder/conv1a/weights", "op": "Const", "attr": {"dtype": {"type": "DT_FLOAT"}, "value": {"tensor": {"dtype": "DT_FLOAT", "tensorShape": {"dim": [{"size": "3"}, {"size": "3"}, {"size": "3"}, {"size": "16"}]}}}}}, {"name": "decoder/L3/upsampler/bilinear_upsampling_by_convolution/weights", "op": "Const", "attr": {"value": {"tensor": {"dtype": "DT_FLOAT", "tensorShape": {"dim": [{"size": "2"}, {"size": "2"}, {"size": "8"}, {"size": "8"}]}}}, "dtype": {"type": "DT_FLOAT"}}}, {"name": "encoder/conv1a/biases", "op": "Const", "attr": {"value": {"tensor": {"dtype": "DT_FLOAT", "tensorShape": {"dim": [{"size": "16"}]}}}, "dtype": {"type": "DT_FLOAT"}}}, {"name": "decoder/L1/estimator/build_estimator/disp-5/weights", "op": "Const", "attr": {"value": {"tensor": {"dtype": "DT_FLOAT", "tensorShape": {"dim": [{"size": "3"}, {"size": "3"}, {"size": "64"}, {"size": "32"}]}}}, "dtype": {"type": "DT_FLOAT"}}}, {"name": "encoder/conv1b/weights", "op": "Const", "attr": {"value": {"tensor": {"dtype": "DT_FLOAT", "tensorShape": {"dim": [{"size": "3"}, {"size": "3"}, {"size": "16"}, {"size": "16"}]}}}, "dtype": {"type": "DT_FLOAT"}}}, {"name": "decoder/L3/estimator/build_estimator/disp-6/biases", "op": "Const", "attr": {"value": {"tensor": {"dtype": "DT_FLOAT", "tensorShape": {"dim": [{"size": "8"}]}}}, "dtype": {"type": "DT_FLOAT"}}}, {"name": "encoder/conv1b/biases", "op": "Const", "attr": {"value": {"tensor": {"dtype": "DT_FLOAT", "tensorShape": {"dim": [{"size": "16"}]}}}, "dtype": {"type": "DT_FLOAT"}}}, {"name": "decoder/L3/upsampler/bilinear_upsampling_by_convolution/biases", "op": "Const", "attr": {"value": {"tensor": {"dtype": "DT_FLOAT", "tensorShape": {"dim": [{"size": "8"}]}}}, "dtype": {"type": "DT_FLOAT"}}}, {"name": "encoder/conv2a/weights", "op": "Const", "attr": {"value": {"tensor": {"dtype": "DT_FLOAT", "tensorShape": {"dim": [{"size": "3"}, {"size": "3"}, {"size": "16"}, {"size": "32"}]}}}, "dtype": {"type": "DT_FLOAT"}}}, {"name": "encoder/conv2a/biases", "op": "Const", "attr": {"value": {"tensor": {"dtype": "DT_FLOAT", "tensorShape": {"dim": [{"size": "32"}]}}}, "dtype": {"type": "DT_FLOAT"}}}, {"name": "encoder/conv2b/weights", "op": "Const", "attr": {"dtype": {"type": "DT_FLOAT"}, "value": {"tensor": {"dtype": "DT_FLOAT", "tensorShape": {"dim": [{"size": "3"}, {"size": "3"}, {"size": "32"}, {"size": "32"}]}}}}}, {"name": "encoder/conv2b/biases", "op": "Const", "attr": {"value": {"tensor": {"dtype": "DT_FLOAT", "tensorShape": {"dim": [{"size": "32"}]}}}, "dtype": {"type": "DT_FLOAT"}}}, {"name": "decoder/L2/estimator/build_estimator/concat/axis", "op": "Const", "attr": {"value": {"tensor": {"dtype": "DT_INT32", "tensorShape": {}}}, "dtype": {"type": "DT_INT32"}}}, {"name": "encoder/conv3a/weights", "op": "Const", "attr": {"value": {"tensor": {"dtype": "DT_FLOAT", "tensorShape": {"dim": [{"size": "3"}, {"size": "3"}, {"size": "32"}, {"size": "64"}]}}}, "dtype": {"type": "DT_FLOAT"}}}, {"name": "decoder/L3/upsampler/bilinear_upsampling_by_convolution/resize/size", "op": "Const", "attr": {"value": {"tensor": {"dtype": "DT_INT32", "tensorShape": {"dim": [{"size": "2"}]}}}, "dtype": {"type": "DT_INT32"}}}, {"name": "encoder/conv3a/biases", "op": "Const", "attr": {"value": {"tensor": {"dtype": "DT_FLOAT", "tensorShape": {"dim": [{"size": "64"}]}}}, "dtype": {"type": "DT_FLOAT"}}}, {"name": "decoder/L2/estimator/build_estimator/disp-3/weights", "op": "Const", "attr": {"value": {"tensor": {"dtype": "DT_FLOAT", "tensorShape": {"dim": [{"size": "3"}, {"size": "3"}, {"size": "40"}, {"size": "96"}]}}}, "dtype": {"type": "DT_FLOAT"}}}, {"name": "encoder/conv3b/weights", "op": "Const", "attr": {"dtype": {"type": "DT_FLOAT"}, "value": {"tensor": {"dtype": "DT_FLOAT", "tensorShape": {"dim": [{"size": "3"}, {"size": "3"}, {"size": "64"}, {"size": "64"}]}}}}}, {"name": "encoder/conv3b/biases", "op": "Const", "attr": {"value": {"tensor": {"dtype": "DT_FLOAT", "tensorShape": {"dim": [{"size": "64"}]}}}, "dtype": {"type": "DT_FLOAT"}}}, {"name": "encoder/conv4a/weights", "op": "Const", "attr": {"value": {"tensor": {"dtype": "DT_FLOAT", "tensorShape": {"dim": [{"size": "3"}, {"size": "3"}, {"size": "64"}, {"size": "96"}]}}}, "dtype": {"type": "DT_FLOAT"}}}, {"name": "decoder/L2/estimator/build_estimator/disp-3/biases", "op": "Const", "attr": {"dtype": {"type": "DT_FLOAT"}, "value": {"tensor": {"dtype": "DT_FLOAT", "tensorShape": {"dim": [{"size": "96"}]}}}}}, {"name": "encoder/conv4a/biases", "op": "Const", "attr": {"dtype": {"type": "DT_FLOAT"}, "value": {"tensor": {"dtype": "DT_FLOAT", "tensorShape": {"dim": [{"size": "96"}]}}}}}, {"name": "decoder/L1/estimator/build_estimator/disp-5/biases", "op": "Const", "attr": {"value": {"tensor": {"dtype": "DT_FLOAT", "tensorShape": {"dim": [{"size": "32"}]}}}, "dtype": {"type": "DT_FLOAT"}}}, {"name": "encoder/conv4b/weights", "op": "Const", "attr": {"value": {"tensor": {"dtype": "DT_FLOAT", "tensorShape": {"dim": [{"size": "3"}, {"size": "3"}, {"size": "96"}, {"size": "96"}]}}}, "dtype": {"type": "DT_FLOAT"}}}, {"name": "encoder/conv4b/biases", "op": "Const", "attr": {"value": {"tensor": {"dtype": "DT_FLOAT", "tensorShape": {"dim": [{"size": "96"}]}}}, "dtype": {"type": "DT_FLOAT"}}}, {"name": "encoder/conv5a/weights", "op": "Const", "attr": {"value": {"tensor": {"dtype": "DT_FLOAT", "tensorShape": {"dim": [{"size": "3"}, {"size": "3"}, {"size": "96"}, {"size": "128"}]}}}, "dtype": {"type": "DT_FLOAT"}}}, {"name": "decoder/L2/estimator/build_estimator/disp-4/weights", "op": "Const", "attr": {"value": {"tensor": {"dtype": "DT_FLOAT", "tensorShape": {"dim": [{"size": "3"}, {"size": "3"}, {"size": "96"}, {"size": "64"}]}}}, "dtype": {"type": "DT_FLOAT"}}}, {"name": "encoder/conv5a/biases", "op": "Const", "attr": {"value": {"tensor": {"dtype": "DT_FLOAT", "tensorShape": {"dim": [{"size": "128"}]}}}, "dtype": {"type": "DT_FLOAT"}}}, {"name": "decoder/L1/estimator/get_disp/biases", "op": "Const", "attr": {"value": {"tensor": {"dtype": "DT_FLOAT", "tensorShape": {"dim": [{"size": "1"}]}}}, "dtype": {"type": "DT_FLOAT"}}}, {"name": "encoder/conv5b/weights", "op": "Const", "attr": {"value": {"tensor": {"dtype": "DT_FLOAT", "tensorShape": {"dim": [{"size": "3"}, {"size": "3"}, {"size": "128"}, {"size": "128"}]}}}, "dtype": {"type": "DT_FLOAT"}}}, {"name": "encoder/conv5b/biases", "op": "Const", "attr": {"value": {"tensor": {"dtype": "DT_FLOAT", "tensorShape": {"dim": [{"size": "128"}]}}}, "dtype": {"type": "DT_FLOAT"}}}, {"name": "decoder/L2/estimator/build_estimator/disp-4/biases", "op": "Const", "attr": {"value": {"tensor": {"dtype": "DT_FLOAT", "tensorShape": {"dim": [{"size": "64"}]}}}, "dtype": {"type": "DT_FLOAT"}}}, {"name": "encoder/conv6a/weights", "op": "Const", "attr": {"value": {"tensor": {"dtype": "DT_FLOAT", "tensorShape": {"dim": [{"size": "3"}, {"size": "3"}, {"size": "128"}, {"size": "192"}]}}}, "dtype": {"type": "DT_FLOAT"}}}, {"name": "encoder/conv6a/biases", "op": "Const", "attr": {"dtype": {"type": "DT_FLOAT"}, "value": {"tensor": {"dtype": "DT_FLOAT", "tensorShape": {"dim": [{"size": "192"}]}}}}}, {"name": "encoder/conv6b/weights", "op": "Const", "attr": {"value": {"tensor": {"dtype": "DT_FLOAT", "tensorShape": {"dim": [{"size": "3"}, {"size": "3"}, {"size": "192"}, {"size": "192"}]}}}, "dtype": {"type": "DT_FLOAT"}}}, {"name": "encoder/conv6b/biases", "op": "Const", "attr": {"value": {"tensor": {"dtype": "DT_FLOAT", "tensorShape": {"dim": [{"size": "192"}]}}}, "dtype": {"type": "DT_FLOAT"}}}, {"name": "decoder/L2/estimator/build_estimator/disp-5/weights", "op": "Const", "attr": {"value": {"tensor": {"dtype": "DT_FLOAT", "tensorShape": {"dim": [{"size": "3"}, {"size": "3"}, {"size": "64"}, {"size": "32"}]}}}, "dtype": {"type": "DT_FLOAT"}}}, {"name": "decoder/L6/estimator/build_estimator/disp-3/weights", "op": "Const", "attr": {"value": {"tensor": {"dtype": "DT_FLOAT", "tensorShape": {"dim": [{"size": "3"}, {"size": "3"}, {"size": "192"}, {"size": "96"}]}}}, "dtype": {"type": "DT_FLOAT"}}}, {"name": "decoder/L6/estimator/build_estimator/disp-3/biases", "op": "Const", "attr": {"value": {"tensor": {"dtype": "DT_FLOAT", "tensorShape": {"dim": [{"size": "96"}]}}}, "dtype": {"type": "DT_FLOAT"}}}, {"name": "decoder/L6/estimator/build_estimator/disp-4/weights", "op": "Const", "attr": {"value": {"tensor": {"dtype": "DT_FLOAT", "tensorShape": {"dim": [{"size": "3"}, {"size": "3"}, {"size": "96"}, {"size": "64"}]}}}, "dtype": {"type": "DT_FLOAT"}}}, {"name": "decoder/L2/estimator/build_estimator/disp-5/biases", "op": "Const", "attr": {"value": {"tensor": {"dtype": "DT_FLOAT", "tensorShape": {"dim": [{"size": "32"}]}}}, "dtype": {"type": "DT_FLOAT"}}}, {"name": "decoder/L6/estimator/build_estimator/disp-4/biases", "op": "Const", "attr": {"value": {"tensor": {"dtype": "DT_FLOAT", "tensorShape": {"dim": [{"size": "64"}]}}}, "dtype": {"type": "DT_FLOAT"}}}, {"name": "decoder/L1/estimator/build_estimator/disp-6/weights", "op": "Const", "attr": {"value": {"tensor": {"dtype": "DT_FLOAT", "tensorShape": {"dim": [{"size": "3"}, {"size": "3"}, {"size": "32"}, {"size": "8"}]}}}, "dtype": {"type": "DT_FLOAT"}}}, {"name": "decoder/L6/estimator/build_estimator/disp-5/weights", "op": "Const", "attr": {"value": {"tensor": {"dtype": "DT_FLOAT", "tensorShape": {"dim": [{"size": "3"}, {"size": "3"}, {"size": "64"}, {"size": "32"}]}}}, "dtype": {"type": "DT_FLOAT"}}}, {"name": "decoder/L6/estimator/build_estimator/disp-5/biases", "op": "Const", "attr": {"value": {"tensor": {"dtype": "DT_FLOAT", "tensorShape": {"dim": [{"size": "32"}]}}}, "dtype": {"type": "DT_FLOAT"}}}, {"name": "decoder/L6/estimator/build_estimator/disp-6/weights", "op": "Const", "attr": {"value": {"tensor": {"dtype": "DT_FLOAT", "tensorShape": {"dim": [{"size": "3"}, {"size": "3"}, {"size": "32"}, {"size": "8"}]}}}, "dtype": {"type": "DT_FLOAT"}}}, {"name": "decoder/L2/estimator/build_estimator/disp-6/weights", "op": "Const", "attr": {"dtype": {"type": "DT_FLOAT"}, "value": {"tensor": {"dtype": "DT_FLOAT", "tensorShape": {"dim": [{"size": "3"}, {"size": "3"}, {"size": "32"}, {"size": "8"}]}}}}}, {"name": "decoder/L6/estimator/build_estimator/disp-6/biases", "op": "Const", "attr": {"value": {"tensor": {"dtype": "DT_FLOAT", "tensorShape": {"dim": [{"size": "8"}]}}}, "dtype": {"type": "DT_FLOAT"}}}, {"name": "decoder/L6/upsampler/bilinear_upsampling_by_convolution/resize/size", "op": "Const", "attr": {"value": {"tensor": {"dtype": "DT_INT32", "tensorShape": {"dim": [{"size": "2"}]}}}, "dtype": {"type": "DT_INT32"}}}, {"name": "decoder/L6/upsampler/bilinear_upsampling_by_convolution/weights", "op": "Const", "attr": {"value": {"tensor": {"dtype": "DT_FLOAT", "tensorShape": {"dim": [{"size": "2"}, {"size": "2"}, {"size": "8"}, {"size": "8"}]}}}, "dtype": {"type": "DT_FLOAT"}}}, {"name": "decoder/L6/upsampler/bilinear_upsampling_by_convolution/biases", "op": "Const", "attr": {"value": {"tensor": {"dtype": "DT_FLOAT", "tensorShape": {"dim": [{"size": "8"}]}}}, "dtype": {"type": "DT_FLOAT"}}}, {"name": "decoder/L2/estimator/build_estimator/disp-6/biases", "op": "Const", "attr": {"value": {"tensor": {"dtype": "DT_FLOAT", "tensorShape": {"dim": [{"size": "8"}]}}}, "dtype": {"type": "DT_FLOAT"}}}, {"name": "decoder/L5/estimator/build_estimator/disp-3/weights", "op": "Const", "attr": {"value": {"tensor": {"dtype": "DT_FLOAT", "tensorShape": {"dim": [{"size": "3"}, {"size": "3"}, {"size": "136"}, {"size": "96"}]}}}, "dtype": {"type": "DT_FLOAT"}}}, {"name": "decoder/L5/estimator/build_estimator/disp-3/biases", "op": "Const", "attr": {"value": {"tensor": {"dtype": "DT_FLOAT", "tensorShape": {"dim": [{"size": "96"}]}}}, "dtype": {"type": "DT_FLOAT"}}}, {"name": "decoder/L5/estimator/build_estimator/disp-4/weights", "op": "Const", "attr": {"value": {"tensor": {"dtype": "DT_FLOAT", "tensorShape": {"dim": [{"size": "3"}, {"size": "3"}, {"size": "96"}, {"size": "64"}]}}}, "dtype": {"type": "DT_FLOAT"}}}, {"name": "decoder/L5/estimator/build_estimator/disp-4/biases", "op": "Const", "attr": {"value": {"tensor": {"dtype": "DT_FLOAT", "tensorShape": {"dim": [{"size": "64"}]}}}, "dtype": {"type": "DT_FLOAT"}}}, {"name": "decoder/L2/upsampler/bilinear_upsampling_by_convolution/resize/size", "op": "Const", "attr": {"value": {"tensor": {"dtype": "DT_INT32", "tensorShape": {"dim": [{"size": "2"}]}}}, "dtype": {"type": "DT_INT32"}}}, {"name": "decoder/L5/estimator/build_estimator/disp-5/weights", "op": "Const", "attr": {"value": {"tensor": {"dtype": "DT_FLOAT", "tensorShape": {"dim": [{"size": "3"}, {"size": "3"}, {"size": "64"}, {"size": "32"}]}}}, "dtype": {"type": "DT_FLOAT"}}}, {"name": "decoder/L5/estimator/build_estimator/disp-5/biases", "op": "Const", "attr": {"value": {"tensor": {"dtype": "DT_FLOAT", "tensorShape": {"dim": [{"size": "32"}]}}}, "dtype": {"type": "DT_FLOAT"}}}, {"name": "decoder/L2/upsampler/bilinear_upsampling_by_convolution/weights", "op": "Const", "attr": {"value": {"tensor": {"dtype": "DT_FLOAT", "tensorShape": {"dim": [{"size": "2"}, {"size": "2"}, {"size": "8"}, {"size": "8"}]}}}, "dtype": {"type": "DT_FLOAT"}}}, {"name": "decoder/L5/estimator/build_estimator/disp-6/weights", "op": "Const", "attr": {"value": {"tensor": {"dtype": "DT_FLOAT", "tensorShape": {"dim": [{"size": "3"}, {"size": "3"}, {"size": "32"}, {"size": "8"}]}}}, "dtype": {"type": "DT_FLOAT"}}}, {"name": "decoder/L1/estimator/build_estimator/disp-6/biases", "op": "Const", "attr": {"value": {"tensor": {"dtype": "DT_FLOAT", "tensorShape": {"dim": [{"size": "8"}]}}}, "dtype": {"type": "DT_FLOAT"}}}, {"name": "decoder/L5/estimator/build_estimator/disp-6/biases", "op": "Const", "attr": {"dtype": {"type": "DT_FLOAT"}, "value": {"tensor": {"dtype": "DT_FLOAT", "tensorShape": {"dim": [{"size": "8"}]}}}}}, {"name": "decoder/L5/upsampler/bilinear_upsampling_by_convolution/resize/size", "op": "Const", "attr": {"value": {"tensor": {"dtype": "DT_INT32", "tensorShape": {"dim": [{"size": "2"}]}}}, "dtype": {"type": "DT_INT32"}}}, {"name": "decoder/L5/upsampler/bilinear_upsampling_by_convolution/weights", "op": "Const", "attr": {"value": {"tensor": {"dtype": "DT_FLOAT", "tensorShape": {"dim": [{"size": "2"}, {"size": "2"}, {"size": "8"}, {"size": "8"}]}}}, "dtype": {"type": "DT_FLOAT"}}}, {"name": "decoder/L2/upsampler/bilinear_upsampling_by_convolution/biases", "op": "Const", "attr": {"value": {"tensor": {"dtype": "DT_FLOAT", "tensorShape": {"dim": [{"size": "8"}]}}}, "dtype": {"type": "DT_FLOAT"}}}, {"name": "decoder/L5/upsampler/bilinear_upsampling_by_convolution/biases", "op": "Const", "attr": {"value": {"tensor": {"dtype": "DT_FLOAT", "tensorShape": {"dim": [{"size": "8"}]}}}, "dtype": {"type": "DT_FLOAT"}}}, {"name": "decoder/L4/estimator/build_estimator/disp-3/weights", "op": "Const", "attr": {"value": {"tensor": {"dtype": "DT_FLOAT", "tensorShape": {"dim": [{"size": "3"}, {"size": "3"}, {"size": "104"}, {"size": "96"}]}}}, "dtype": {"type": "DT_FLOAT"}}}, {"name": "decoder/L4/estimator/build_estimator/disp-3/biases", "op": "Const", "attr": {"value": {"tensor": {"dtype": "DT_FLOAT", "tensorShape": {"dim": [{"size": "96"}]}}}, "dtype": {"type": "DT_FLOAT"}}}, {"name": "decoder/L4/estimator/build_estimator/disp-4/weights", "op": "Const", "attr": {"value": {"tensor": {"dtype": "DT_FLOAT", "tensorShape": {"dim": [{"size": "3"}, {"size": "3"}, {"size": "96"}, {"size": "64"}]}}}, "dtype": {"type": "DT_FLOAT"}}}, {"name": "decoder/L4/estimator/build_estimator/disp-4/biases", "op": "Const", "attr": {"value": {"tensor": {"dtype": "DT_FLOAT", "tensorShape": {"dim": [{"size": "64"}]}}}, "dtype": {"type": "DT_FLOAT"}}}, {"name": "decoder/L4/estimator/build_estimator/disp-5/weights", "op": "Const", "attr": {"value": {"tensor": {"dtype": "DT_FLOAT", "tensorShape": {"dim": [{"size": "3"}, {"size": "3"}, {"size": "64"}, {"size": "32"}]}}}, "dtype": {"type": "DT_FLOAT"}}}, {"name": "decoder/L1/estimator/build_estimator/disp-3/weights", "op": "Const", "attr": {"value": {"tensor": {"dtype": "DT_FLOAT", "tensorShape": {"dim": [{"size": "3"}, {"size": "3"}, {"size": "24"}, {"size": "96"}]}}}, "dtype": {"type": "DT_FLOAT"}}}, {"name": "decoder/L4/estimator/build_estimator/disp-5/biases", "op": "Const", "attr": {"value": {"tensor": {"dtype": "DT_FLOAT", "tensorShape": {"dim": [{"size": "32"}]}}}, "dtype": {"type": "DT_FLOAT"}}}, {"name": "decoder/L4/estimator/build_estimator/disp-6/weights", "op": "Const", "attr": {"dtype": {"type": "DT_FLOAT"}, "value": {"tensor": {"dtype": "DT_FLOAT", "tensorShape": {"dim": [{"size": "3"}, {"size": "3"}, {"size": "32"}, {"size": "8"}]}}}}}, {"name": "decoder/L4/estimator/build_estimator/disp-6/biases", "op": "Const", "attr": {"value": {"tensor": {"dtype": "DT_FLOAT", "tensorShape": {"dim": [{"size": "8"}]}}}, "dtype": {"type": "DT_FLOAT"}}}, {"name": "decoder/L1/estimator/build_estimator/disp-3/biases", "op": "Const", "attr": {"value": {"tensor": {"dtype": "DT_FLOAT", "tensorShape": {"dim": [{"size": "96"}]}}}, "dtype": {"type": "DT_FLOAT"}}}, {"name": "decoder/L4/upsampler/bilinear_upsampling_by_convolution/resize/size", "op": "Const", "attr": {"value": {"tensor": {"dtype": "DT_INT32", "tensorShape": {"dim": [{"size": "2"}]}}}, "dtype": {"type": "DT_INT32"}}}, {"name": "decoder/L4/upsampler/bilinear_upsampling_by_convolution/weights", "op": "Const", "attr": {"value": {"tensor": {"dtype": "DT_FLOAT", "tensorShape": {"dim": [{"size": "2"}, {"size": "2"}, {"size": "8"}, {"size": "8"}]}}}, "dtype": {"type": "DT_FLOAT"}}}, {"name": "decoder/L4/upsampler/bilinear_upsampling_by_convolution/biases", "op": "Const", "attr": {"value": {"tensor": {"dtype": "DT_FLOAT", "tensorShape": {"dim": [{"size": "8"}]}}}, "dtype": {"type": "DT_FLOAT"}}}, {"name": "decoder/L3/estimator/build_estimator/disp-3/weights", "op": "Const", "attr": {"value": {"tensor": {"dtype": "DT_FLOAT", "tensorShape": {"dim": [{"size": "3"}, {"size": "3"}, {"size": "72"}, {"size": "96"}]}}}, "dtype": {"type": "DT_FLOAT"}}}, {"name": "decoder/L3/estimator/build_estimator/disp-3/biases", "op": "Const", "attr": {"value": {"tensor": {"dtype": "DT_FLOAT", "tensorShape": {"dim": [{"size": "96"}]}}}, "dtype": {"type": "DT_FLOAT"}}}, {"name": "decoder/L1/estimator/build_estimator/disp-4/weights", "op": "Const", "attr": {"value": {"tensor": {"dtype": "DT_FLOAT", "tensorShape": {"dim": [{"size": "3"}, {"size": "3"}, {"size": "96"}, {"size": "64"}]}}}, "dtype": {"type": "DT_FLOAT"}}}, {"name": "decoder/L3/estimator/build_estimator/disp-4/weights", "op": "Const", "attr": {"value": {"tensor": {"dtype": "DT_FLOAT", "tensorShape": {"dim": [{"size": "3"}, {"size": "3"}, {"size": "96"}, {"size": "64"}]}}}, "dtype": {"type": "DT_FLOAT"}}}, {"name": "decoder/L1/estimator/get_disp/weights", "op": "Const", "attr": {"value": {"tensor": {"dtype": "DT_FLOAT", "tensorShape": {"dim": [{"size": "3"}, {"size": "3"}, {"size": "8"}, {"size": "1"}]}}}, "dtype": {"type": "DT_FLOAT"}}}, {"name": "decoder/L3/estimator/build_estimator/disp-4/biases", "op": "Const", "attr": {"value": {"tensor": {"dtype": "DT_FLOAT", "tensorShape": {"dim": [{"size": "64"}]}}}, "dtype": {"type": "DT_FLOAT"}}}, {"name": "decoder/L3/estimator/build_estimator/disp-5/weights", "op": "Const", "attr": {"value": {"tensor": {"dtype": "DT_FLOAT", "tensorShape": {"dim": [{"size": "3"}, {"size": "3"}, {"size": "64"}, {"size": "32"}]}}}, "dtype": {"type": "DT_FLOAT"}}}, {"name": "decoder/L1/estimator/build_estimator/disp-4/biases", "op": "Const", "attr": {"value": {"tensor": {"dtype": "DT_FLOAT", "tensorShape": {"dim": [{"size": "64"}]}}}, "dtype": {"type": "DT_FLOAT"}}}, {"name": "decoder/L3/estimator/build_estimator/disp-5/biases", "op": "Const", "attr": {"value": {"tensor": {"dtype": "DT_FLOAT", "tensorShape": {"dim": [{"size": "32"}]}}}, "dtype": {"type": "DT_FLOAT"}}}, {"name": "decoder/half/resize/size", "op": "Const", "attr": {"dtype": {"type": "DT_INT32"}, "value": {"tensor": {"dtype": "DT_INT32", "tensorShape": {"dim": [{"size": "2"}]}}}}}, {"name": "decoder/L3/estimator/build_estimator/disp-6/weights", "op": "Const", "attr": {"value": {"tensor": {"dtype": "DT_FLOAT", "tensorShape": {"dim": [{"size": "3"}, {"size": "3"}, {"size": "32"}, {"size": "8"}]}}}, "dtype": {"type": "DT_FLOAT"}}}, {"name": "encoder/conv1a/BiasAdd", "op": "_FusedConv2D", "input": ["im0", "encoder/conv1a/weights", "encoder/conv1a/biases"], "device": "/device:CPU:0", "attr": {"explicit_paddings": {"list": {}}, "use_cudnn_on_gpu": {"b": true}, "num_args": {"i": "1"}, "epsilon": {"f": 0.0}, "padding": {"s": "U0FNRQ=="}, "fused_ops": {"list": {"s": ["Qmlhc0FkZA=="]}}, "dilations": {"list": {"i": ["1", "1", "1", "1"]}}, "T": {"type": "DT_FLOAT"}, "data_format": {"s": "TkhXQw=="}, "strides": {"list": {"i": ["1", "2", "2", "1"]}}}}, {"name": "encoder/conv1a/LeakyRelu", "op": "LeakyRelu", "input": ["encoder/conv1a/BiasAdd"], "attr": {"T": {"type": "DT_FLOAT"}, "alpha": {"f": 0.2}}}, {"name": "encoder/conv1b/BiasAdd", "op": "_FusedConv2D", "input": ["encoder/conv1a/LeakyRelu", "encoder/conv1b/weights", "encoder/conv1b/biases"], "device": "/device:CPU:0", "attr": {"dilations": {"list": {"i": ["1", "1", "1", "1"]}}, "T": {"type": "DT_FLOAT"}, "data_format": {"s": "TkhXQw=="}, "strides": {"list": {"i": ["1", "1", "1", "1"]}}, "explicit_paddings": {"list": {}}, "use_cudnn_on_gpu": {"b": true}, "num_args": {"i": "1"}, "epsilon": {"f": 0.0}, "padding": {"s": "U0FNRQ=="}, "fused_ops": {"list": {"s": ["Qmlhc0FkZA=="]}}}}, {"name": "encoder/conv1b/LeakyRelu", "op": "LeakyRelu", "input": ["encoder/conv1b/BiasAdd"], "attr": {"alpha": {"f": 0.2}, "T": {"type": "DT_FLOAT"}}}, {"name": "encoder/conv2a/BiasAdd", "op": "_FusedConv2D", "input": ["encoder/conv1b/LeakyRelu", "encoder/conv2a/weights", "encoder/conv2a/biases"], "device": "/device:CPU:0", "attr": {"padding": {"s": "U0FNRQ=="}, "fused_ops": {"list": {"s": ["Qmlhc0FkZA=="]}}, "dilations": {"list": {"i": ["1", "1", "1", "1"]}}, "T": {"type": "DT_FLOAT"}, "strides": {"list": {"i": ["1", "2", "2", "1"]}}, "data_format": {"s": "TkhXQw=="}, "use_cudnn_on_gpu": {"b": true}, "explicit_paddings": {"list": {}}, "num_args": {"i": "1"}, "epsilon": {"f": 0.0}}}, {"name": "encoder/conv2a/LeakyRelu", "op": "LeakyRelu", "input": ["encoder/conv2a/BiasAdd"], "attr": {"T": {"type": "DT_FLOAT"}, "alpha": {"f": 0.2}}}, {"name": "encoder/conv2b/BiasAdd", "op": "_FusedConv2D", "input": ["encoder/conv2a/LeakyRelu", "encoder/conv2b/weights", "encoder/conv2b/biases"], "device": "/device:CPU:0", "attr": {"padding": {"s": "U0FNRQ=="}, "fused_ops": {"list": {"s": ["Qmlhc0FkZA=="]}}, "dilations": {"list": {"i": ["1", "1", "1", "1"]}}, "T": {"type": "DT_FLOAT"}, "strides": {"list": {"i": ["1", "1", "1", "1"]}}, "data_format": {"s": "TkhXQw=="}, "use_cudnn_on_gpu": {"b": true}, "explicit_paddings": {"list": {}}, "num_args": {"i": "1"}, "epsilon": {"f": 0.0}}}, {"name": "encoder/conv2b/LeakyRelu", "op": "LeakyRelu", "input": ["encoder/conv2b/BiasAdd"], "attr": {"alpha": {"f": 0.2}, "T": {"type": "DT_FLOAT"}}}, {"name": "encoder/conv3a/BiasAdd", "op": "_FusedConv2D", "input": ["encoder/conv2b/LeakyRelu", "encoder/conv3a/weights", "encoder/conv3a/biases"], "device": "/device:CPU:0", "attr": {"dilations": {"list": {"i": ["1", "1", "1", "1"]}}, "T": {"type": "DT_FLOAT"}, "data_format": {"s": "TkhXQw=="}, "strides": {"list": {"i": ["1", "2", "2", "1"]}}, "explicit_paddings": {"list": {}}, "use_cudnn_on_gpu": {"b": true}, "num_args": {"i": "1"}, "epsilon": {"f": 0.0}, "padding": {"s": "U0FNRQ=="}, "fused_ops": {"list": {"s": ["Qmlhc0FkZA=="]}}}}, {"name": "encoder/conv3a/LeakyRelu", "op": "LeakyRelu", "input": ["encoder/conv3a/BiasAdd"], "attr": {"T": {"type": "DT_FLOAT"}, "alpha": {"f": 0.2}}}, {"name": "encoder/conv3b/BiasAdd", "op": "_FusedConv2D", "input": ["encoder/conv3a/LeakyRelu", "encoder/conv3b/weights", "encoder/conv3b/biases"], "device": "/device:CPU:0", "attr": {"dilations": {"list": {"i": ["1", "1", "1", "1"]}}, "T": {"type": "DT_FLOAT"}, "data_format": {"s": "TkhXQw=="}, "strides": {"list": {"i": ["1", "1", "1", "1"]}}, "explicit_paddings": {"list": {}}, "use_cudnn_on_gpu": {"b": true}, "num_args": {"i": "1"}, "epsilon": {"f": 0.0}, "padding": {"s": "U0FNRQ=="}, "fused_ops": {"list": {"s": ["Qmlhc0FkZA=="]}}}}, {"name": "encoder/conv3b/LeakyRelu", "op": "LeakyRelu", "input": ["encoder/conv3b/BiasAdd"], "attr": {"T": {"type": "DT_FLOAT"}, "alpha": {"f": 0.2}}}, {"name": "encoder/conv4a/BiasAdd", "op": "_FusedConv2D", "input": ["encoder/conv3b/LeakyRelu", "encoder/conv4a/weights", "encoder/conv4a/biases"], "device": "/device:CPU:0", "attr": {"strides": {"list": {"i": ["1", "2", "2", "1"]}}, "data_format": {"s": "TkhXQw=="}, "use_cudnn_on_gpu": {"b": true}, "explicit_paddings": {"list": {}}, "num_args": {"i": "1"}, "epsilon": {"f": 0.0}, "padding": {"s": "U0FNRQ=="}, "fused_ops": {"list": {"s": ["Qmlhc0FkZA=="]}}, "dilations": {"list": {"i": ["1", "1", "1", "1"]}}, "T": {"type": "DT_FLOAT"}}}, {"name": "encoder/conv4a/LeakyRelu", "op": "LeakyRelu", "input": ["encoder/conv4a/BiasAdd"], "attr": {"T": {"type": "DT_FLOAT"}, "alpha": {"f": 0.2}}}, {"name": "encoder/conv4b/BiasAdd", "op": "_FusedConv2D", "input": ["encoder/conv4a/LeakyRelu", "encoder/conv4b/weights", "encoder/conv4b/biases"], "device": "/device:CPU:0", "attr": {"dilations": {"list": {"i": ["1", "1", "1", "1"]}}, "T": {"type": "DT_FLOAT"}, "data_format": {"s": "TkhXQw=="}, "strides": {"list": {"i": ["1", "1", "1", "1"]}}, "explicit_paddings": {"list": {}}, "use_cudnn_on_gpu": {"b": true}, "num_args": {"i": "1"}, "epsilon": {"f": 0.0}, "padding": {"s": "U0FNRQ=="}, "fused_ops": {"list": {"s": ["Qmlhc0FkZA=="]}}}}, {"name": "encoder/conv4b/LeakyRelu", "op": "LeakyRelu", "input": ["encoder/conv4b/BiasAdd"], "attr": {"T": {"type": "DT_FLOAT"}, "alpha": {"f": 0.2}}}, {"name": "encoder/conv5a/BiasAdd", "op": "_FusedConv2D", "input": ["encoder/conv4b/LeakyRelu", "encoder/conv5a/weights", "encoder/conv5a/biases"], "device": "/device:CPU:0", "attr": {"epsilon": {"f": 0.0}, "padding": {"s": "U0FNRQ=="}, "fused_ops": {"list": {"s": ["Qmlhc0FkZA=="]}}, "dilations": {"list": {"i": ["1", "1", "1", "1"]}}, "T": {"type": "DT_FLOAT"}, "strides": {"list": {"i": ["1", "2", "2", "1"]}}, "data_format": {"s": "TkhXQw=="}, "use_cudnn_on_gpu": {"b": true}, "explicit_paddings": {"list": {}}, "num_args": {"i": "1"}}}, {"name": "encoder/conv5a/LeakyRelu", "op": "LeakyRelu", "input": ["encoder/conv5a/BiasAdd"], "attr": {"T": {"type": "DT_FLOAT"}, "alpha": {"f": 0.2}}}, {"name": "encoder/conv5b/BiasAdd", "op": "_FusedConv2D", "input": ["encoder/conv5a/LeakyRelu", "encoder/conv5b/weights", "encoder/conv5b/biases"], "device": "/device:CPU:0", "attr": {"dilations": {"list": {"i": ["1", "1", "1", "1"]}}, "T": {"type": "DT_FLOAT"}, "data_format": {"s": "TkhXQw=="}, "strides": {"list": {"i": ["1", "1", "1", "1"]}}, "explicit_paddings": {"list": {}}, "use_cudnn_on_gpu": {"b": true}, "num_args": {"i": "1"}, "epsilon": {"f": 0.0}, "padding": {"s": "U0FNRQ=="}, "fused_ops": {"list": {"s": ["Qmlhc0FkZA=="]}}}}, {"name": "encoder/conv5b/LeakyRelu", "op": "LeakyRelu", "input": ["encoder/conv5b/BiasAdd"], "attr": {"T": {"type": "DT_FLOAT"}, "alpha": {"f": 0.2}}}, {"name": "encoder/conv6a/BiasAdd", "op": "_FusedConv2D", "input": ["encoder/conv5b/LeakyRelu", "encoder/conv6a/weights", "encoder/conv6a/biases"], "device": "/device:CPU:0", "attr": {"fused_ops": {"list": {"s": ["Qmlhc0FkZA=="]}}, "dilations": {"list": {"i": ["1", "1", "1", "1"]}}, "T": {"type": "DT_FLOAT"}, "data_format": {"s": "TkhXQw=="}, "strides": {"list": {"i": ["1", "2", "2", "1"]}}, "explicit_paddings": {"list": {}}, "use_cudnn_on_gpu": {"b": true}, "num_args": {"i": "1"}, "epsilon": {"f": 0.0}, "padding": {"s": "U0FNRQ=="}}}, {"name": "encoder/conv6a/LeakyRelu", "op": "LeakyRelu", "input": ["encoder/conv6a/BiasAdd"], "attr": {"T": {"type": "DT_FLOAT"}, "alpha": {"f": 0.2}}}, {"name": "encoder/conv6b/BiasAdd", "op": "_FusedConv2D", "input": ["encoder/conv6a/LeakyRelu", "encoder/conv6b/weights", "encoder/conv6b/biases"], "device": "/device:CPU:0", "attr": {"data_format": {"s": "TkhXQw=="}, "strides": {"list": {"i": ["1", "1", "1", "1"]}}, "explicit_paddings": {"list": {}}, "use_cudnn_on_gpu": {"b": true}, "num_args": {"i": "1"}, "epsilon": {"f": 0.0}, "padding": {"s": "U0FNRQ=="}, "fused_ops": {"list": {"s": ["Qmlhc0FkZA=="]}}, "dilations": {"list": {"i": ["1", "1", "1", "1"]}}, "T": {"type": "DT_FLOAT"}}}, {"name": "encoder/conv6b/LeakyRelu", "op": "LeakyRelu", "input": ["encoder/conv6b/BiasAdd"], "attr": {"T": {"type": "DT_FLOAT"}, "alpha": {"f": 0.2}}}, {"name": "decoder/L6/estimator/build_estimator/disp-3/BiasAdd", "op": "_FusedConv2D", "input": ["encoder/conv6b/LeakyRelu", "decoder/L6/estimator/build_estimator/disp-3/weights", "decoder/L6/estimator/build_estimator/disp-3/biases"], "device": "/device:CPU:0", "attr": {"dilations": {"list": {"i": ["1", "1", "1", "1"]}}, "T": {"type": "DT_FLOAT"}, "data_format": {"s": "TkhXQw=="}, "strides": {"list": {"i": ["1", "1", "1", "1"]}}, "explicit_paddings": {"list": {}}, "use_cudnn_on_gpu": {"b": true}, "num_args": {"i": "1"}, "epsilon": {"f": 0.0}, "padding": {"s": "U0FNRQ=="}, "fused_ops": {"list": {"s": ["Qmlhc0FkZA=="]}}}}, {"name": "decoder/L6/estimator/build_estimator/disp-3/LeakyRelu", "op": "LeakyRelu", "input": ["decoder/L6/estimator/build_estimator/disp-3/BiasAdd"], "attr": {"T": {"type": "DT_FLOAT"}, "alpha": {"f": 0.2}}}, {"name": "decoder/L6/estimator/build_estimator/disp-4/BiasAdd", "op": "_FusedConv2D", "input": ["decoder/L6/estimator/build_estimator/disp-3/LeakyRelu", "decoder/L6/estimator/build_estimator/disp-4/weights", "decoder/L6/estimator/build_estimator/disp-4/biases"], "device": "/device:CPU:0", "attr": {"dilations": {"list": {"i": ["1", "1", "1", "1"]}}, "T": {"type": "DT_FLOAT"}, "strides": {"list": {"i": ["1", "1", "1", "1"]}}, "data_format": {"s": "TkhXQw=="}, "use_cudnn_on_gpu": {"b": true}, "explicit_paddings": {"list": {}}, "num_args": {"i": "1"}, "epsilon": {"f": 0.0}, "padding": {"s": "U0FNRQ=="}, "fused_ops": {"list": {"s": ["Qmlhc0FkZA=="]}}}}, {"name": "decoder/L6/estimator/build_estimator/disp-4/LeakyRelu", "op": "LeakyRelu", "input": ["decoder/L6/estimator/build_estimator/disp-4/BiasAdd"], "attr": {"T": {"type": "DT_FLOAT"}, "alpha": {"f": 0.2}}}, {"name": "decoder/L6/estimator/build_estimator/disp-5/BiasAdd", "op": "_FusedConv2D", "input": ["decoder/L6/estimator/build_estimator/disp-4/LeakyRelu", "decoder/L6/estimator/build_estimator/disp-5/weights", "decoder/L6/estimator/build_estimator/disp-5/biases"], "device": "/device:CPU:0", "attr": {"data_format": {"s": "TkhXQw=="}, "strides": {"list": {"i": ["1", "1", "1", "1"]}}, "explicit_paddings": {"list": {}}, "use_cudnn_on_gpu": {"b": true}, "num_args": {"i": "1"}, "epsilon": {"f": 0.0}, "padding": {"s": "U0FNRQ=="}, "fused_ops": {"list": {"s": ["Qmlhc0FkZA=="]}}, "dilations": {"list": {"i": ["1", "1", "1", "1"]}}, "T": {"type": "DT_FLOAT"}}}, {"name": "decoder/L6/estimator/build_estimator/disp-5/LeakyRelu", "op": "LeakyRelu", "input": ["decoder/L6/estimator/build_estimator/disp-5/BiasAdd"], "attr": {"T": {"type": "DT_FLOAT"}, "alpha": {"f": 0.2}}}, {"name": "decoder/L6/estimator/build_estimator/disp-6/BiasAdd", "op": "_FusedConv2D", "input": ["decoder/L6/estimator/build_estimator/disp-5/LeakyRelu", "decoder/L6/estimator/build_estimator/disp-6/weights", "decoder/L6/estimator/build_estimator/disp-6/biases"], "device": "/device:CPU:0", "attr": {"dilations": {"list": {"i": ["1", "1", "1", "1"]}}, "T": {"type": "DT_FLOAT"}, "data_format": {"s": "TkhXQw=="}, "strides": {"list": {"i": ["1", "1", "1", "1"]}}, "use_cudnn_on_gpu": {"b": true}, "explicit_paddings": {"list": {}}, "num_args": {"i": "1"}, "epsilon": {"f": 0.0}, "padding": {"s": "U0FNRQ=="}, "fused_ops": {"list": {"s": ["Qmlhc0FkZA=="]}}}}, {"name": "decoder/L6/estimator/build_estimator/disp-6/LeakyRelu", "op": "LeakyRelu", "input": ["decoder/L6/estimator/build_estimator/disp-6/BiasAdd"], "attr": {"alpha": {"f": 0.2}, "T": {"type": "DT_FLOAT"}}}, {"name": "decoder/L6/upsampler/bilinear_upsampling_by_convolution/resize/ResizeBilinear", "op": "ResizeBilinear", "input": ["decoder/L6/estimator/build_estimator/disp-6/LeakyRelu", "decoder/L6/upsampler/bilinear_upsampling_by_convolution/resize/size"], "attr": {"align_corners": {"b": false}, "half_pixel_centers": {"b": false}, "T": {"type": "DT_FLOAT"}}}, {"name": "decoder/L6/upsampler/bilinear_upsampling_by_convolution/BiasAdd", "op": "_FusedConv2D", "input": ["decoder/L6/upsampler/bilinear_upsampling_by_convolution/resize/ResizeBilinear", "decoder/L6/upsampler/bilinear_upsampling_by_convolution/weights", "decoder/L6/upsampler/bilinear_upsampling_by_convolution/biases"], "device": "/device:CPU:0", "attr": {"use_cudnn_on_gpu": {"b": true}, "explicit_paddings": {"list": {}}, "num_args": {"i": "1"}, "epsilon": {"f": 0.0}, "padding": {"s": "U0FNRQ=="}, "fused_ops": {"list": {"s": ["Qmlhc0FkZA=="]}}, "dilations": {"list": {"i": ["1", "1", "1", "1"]}}, "T": {"type": "DT_FLOAT"}, "data_format": {"s": "TkhXQw=="}, "strides": {"list": {"i": ["1", "1", "1", "1"]}}}}, {"name": "decoder/L6/upsampler/bilinear_upsampling_by_convolution/LeakyRelu", "op": "LeakyRelu", "input": ["decoder/L6/upsampler/bilinear_upsampling_by_convolution/BiasAdd"], "attr": {"alpha": {"f": 0.2}, "T": {"type": "DT_FLOAT"}}}, {"name": "decoder/L5/estimator/build_estimator/concat", "op": "ConcatV2", "input": ["encoder/conv5b/LeakyRelu", "decoder/L6/upsampler/bilinear_upsampling_by_convolution/LeakyRelu", "decoder/L2/estimator/build_estimator/concat/axis"], "attr": {"N": {"i": "2"}, "Tidx": {"type": "DT_INT32"}, "T": {"type": "DT_FLOAT"}}}, {"name": "decoder/L5/estimator/build_estimator/disp-3/BiasAdd", "op": "_FusedConv2D", "input": ["decoder/L5/estimator/build_estimator/concat", "decoder/L5/estimator/build_estimator/disp-3/weights", "decoder/L5/estimator/build_estimator/disp-3/biases"], "device": "/device:CPU:0", "attr": {"T": {"type": "DT_FLOAT"}, "data_format": {"s": "TkhXQw=="}, "strides": {"list": {"i": ["1", "1", "1", "1"]}}, "explicit_paddings": {"list": {}}, "use_cudnn_on_gpu": {"b": true}, "num_args": {"i": "1"}, "epsilon": {"f": 0.0}, "padding": {"s": "U0FNRQ=="}, "fused_ops": {"list": {"s": ["Qmlhc0FkZA=="]}}, "dilations": {"list": {"i": ["1", "1", "1", "1"]}}}}, {"name": "decoder/L5/estimator/build_estimator/disp-3/LeakyRelu", "op": "LeakyRelu", "input": ["decoder/L5/estimator/build_estimator/disp-3/BiasAdd"], "attr": {"T": {"type": "DT_FLOAT"}, "alpha": {"f": 0.2}}}, {"name": "decoder/L5/estimator/build_estimator/disp-4/BiasAdd", "op": "_FusedConv2D", "input": ["decoder/L5/estimator/build_estimator/disp-3/LeakyRelu", "decoder/L5/estimator/build_estimator/disp-4/weights", "decoder/L5/estimator/build_estimator/disp-4/biases"], "device": "/device:CPU:0", "attr": {"dilations": {"list": {"i": ["1", "1", "1", "1"]}}, "T": {"type": "DT_FLOAT"}, "data_format": {"s": "TkhXQw=="}, "strides": {"list": {"i": ["1", "1", "1", "1"]}}, "use_cudnn_on_gpu": {"b": true}, "explicit_paddings": {"list": {}}, "num_args": {"i": "1"}, "epsilon": {"f": 0.0}, "padding": {"s": "U0FNRQ=="}, "fused_ops": {"list": {"s": ["Qmlhc0FkZA=="]}}}}, {"name": "decoder/L5/estimator/build_estimator/disp-4/LeakyRelu", "op": "LeakyRelu", "input": ["decoder/L5/estimator/build_estimator/disp-4/BiasAdd"], "attr": {"T": {"type": "DT_FLOAT"}, "alpha": {"f": 0.2}}}, {"name": "decoder/L5/estimator/build_estimator/disp-5/BiasAdd", "op": "_FusedConv2D", "input": ["decoder/L5/estimator/build_estimator/disp-4/LeakyRelu", "decoder/L5/estimator/build_estimator/disp-5/weights", "decoder/L5/estimator/build_estimator/disp-5/biases"], "device": "/device:CPU:0", "attr": {"T": {"type": "DT_FLOAT"}, "data_format": {"s": "TkhXQw=="}, "strides": {"list": {"i": ["1", "1", "1", "1"]}}, "use_cudnn_on_gpu": {"b": true}, "explicit_paddings": {"list": {}}, "num_args": {"i": "1"}, "epsilon": {"f": 0.0}, "padding": {"s": "U0FNRQ=="}, "fused_ops": {"list": {"s": ["Qmlhc0FkZA=="]}}, "dilations": {"list": {"i": ["1", "1", "1", "1"]}}}}, {"name": "decoder/L5/estimator/build_estimator/disp-5/LeakyRelu", "op": "LeakyRelu", "input": ["decoder/L5/estimator/build_estimator/disp-5/BiasAdd"], "attr": {"alpha": {"f": 0.2}, "T": {"type": "DT_FLOAT"}}}, {"name": "decoder/L5/estimator/build_estimator/disp-6/BiasAdd", "op": "_FusedConv2D", "input": ["decoder/L5/estimator/build_estimator/disp-5/LeakyRelu", "decoder/L5/estimator/build_estimator/disp-6/weights", "decoder/L5/estimator/build_estimator/disp-6/biases"], "device": "/device:CPU:0", "attr": {"dilations": {"list": {"i": ["1", "1", "1", "1"]}}, "T": {"type": "DT_FLOAT"}, "data_format": {"s": "TkhXQw=="}, "strides": {"list": {"i": ["1", "1", "1", "1"]}}, "explicit_paddings": {"list": {}}, "use_cudnn_on_gpu": {"b": true}, "num_args": {"i": "1"}, "epsilon": {"f": 0.0}, "padding": {"s": "U0FNRQ=="}, "fused_ops": {"list": {"s": ["Qmlhc0FkZA=="]}}}}, {"name": "decoder/L5/estimator/build_estimator/disp-6/LeakyRelu", "op": "LeakyRelu", "input": ["decoder/L5/estimator/build_estimator/disp-6/BiasAdd"], "attr": {"T": {"type": "DT_FLOAT"}, "alpha": {"f": 0.2}}}, {"name": "decoder/L5/upsampler/bilinear_upsampling_by_convolution/resize/ResizeBilinear", "op": "ResizeBilinear", "input": ["decoder/L5/estimator/build_estimator/disp-6/LeakyRelu", "decoder/L5/upsampler/bilinear_upsampling_by_convolution/resize/size"], "attr": {"align_corners": {"b": false}, "half_pixel_centers": {"b": false}, "T": {"type": "DT_FLOAT"}}}, {"name": "decoder/L5/upsampler/bilinear_upsampling_by_convolution/BiasAdd", "op": "_FusedConv2D", "input": ["decoder/L5/upsampler/bilinear_upsampling_by_convolution/resize/ResizeBilinear", "decoder/L5/upsampler/bilinear_upsampling_by_convolution/weights", "decoder/L5/upsampler/bilinear_upsampling_by_convolution/biases"], "device": "/device:CPU:0", "attr": {"dilations": {"list": {"i": ["1", "1", "1", "1"]}}, "T": {"type": "DT_FLOAT"}, "strides": {"list": {"i": ["1", "1", "1", "1"]}}, "data_format": {"s": "TkhXQw=="}, "explicit_paddings": {"list": {}}, "use_cudnn_on_gpu": {"b": true}, "num_args": {"i": "1"}, "epsilon": {"f": 0.0}, "padding": {"s": "U0FNRQ=="}, "fused_ops": {"list": {"s": ["Qmlhc0FkZA=="]}}}}, {"name": "decoder/L5/upsampler/bilinear_upsampling_by_convolution/LeakyRelu", "op": "LeakyRelu", "input": ["decoder/L5/upsampler/bilinear_upsampling_by_convolution/BiasAdd"], "attr": {"T": {"type": "DT_FLOAT"}, "alpha": {"f": 0.2}}}, {"name": "decoder/L4/estimator/build_estimator/concat", "op": "ConcatV2", "input": ["encoder/conv4b/LeakyRelu", "decoder/L5/upsampler/bilinear_upsampling_by_convolution/LeakyRelu", "decoder/L2/estimator/build_estimator/concat/axis"], "attr": {"N": {"i": "2"}, "Tidx": {"type": "DT_INT32"}, "T": {"type": "DT_FLOAT"}}}, {"name": "decoder/L4/estimator/build_estimator/disp-3/BiasAdd", "op": "_FusedConv2D", "input": ["decoder/L4/estimator/build_estimator/concat", "decoder/L4/estimator/build_estimator/disp-3/weights", "decoder/L4/estimator/build_estimator/disp-3/biases"], "device": "/device:CPU:0", "attr": {"dilations": {"list": {"i": ["1", "1", "1", "1"]}}, "T": {"type": "DT_FLOAT"}, "strides": {"list": {"i": ["1", "1", "1", "1"]}}, "data_format": {"s": "TkhXQw=="}, "explicit_paddings": {"list": {}}, "use_cudnn_on_gpu": {"b": true}, "num_args": {"i": "1"}, "epsilon": {"f": 0.0}, "padding": {"s": "U0FNRQ=="}, "fused_ops": {"list": {"s": ["Qmlhc0FkZA=="]}}}}, {"name": "decoder/L4/estimator/build_estimator/disp-3/LeakyRelu", "op": "LeakyRelu", "input": ["decoder/L4/estimator/build_estimator/disp-3/BiasAdd"], "attr": {"T": {"type": "DT_FLOAT"}, "alpha": {"f": 0.2}}}, {"name": "decoder/L4/estimator/build_estimator/disp-4/BiasAdd", "op": "_FusedConv2D", "input": ["decoder/L4/estimator/build_estimator/disp-3/LeakyRelu", "decoder/L4/estimator/build_estimator/disp-4/weights", "decoder/L4/estimator/build_estimator/disp-4/biases"], "device": "/device:CPU:0", "attr": {"dilations": {"list": {"i": ["1", "1", "1", "1"]}}, "T": {"type": "DT_FLOAT"}, "strides": {"list": {"i": ["1", "1", "1", "1"]}}, "data_format": {"s": "TkhXQw=="}, "explicit_paddings": {"list": {}}, "use_cudnn_on_gpu": {"b": true}, "num_args": {"i": "1"}, "epsilon": {"f": 0.0}, "padding": {"s": "U0FNRQ=="}, "fused_ops": {"list": {"s": ["Qmlhc0FkZA=="]}}}}, {"name": "decoder/L4/estimator/build_estimator/disp-4/LeakyRelu", "op": "LeakyRelu", "input": ["decoder/L4/estimator/build_estimator/disp-4/BiasAdd"], "attr": {"T": {"type": "DT_FLOAT"}, "alpha": {"f": 0.2}}}, {"name": "decoder/L4/estimator/build_estimator/disp-5/BiasAdd", "op": "_FusedConv2D", "input": ["decoder/L4/estimator/build_estimator/disp-4/LeakyRelu", "decoder/L4/estimator/build_estimator/disp-5/weights", "decoder/L4/estimator/build_estimator/disp-5/biases"], "device": "/device:CPU:0", "attr": {"dilations": {"list": {"i": ["1", "1", "1", "1"]}}, "T": {"type": "DT_FLOAT"}, "data_format": {"s": "TkhXQw=="}, "strides": {"list": {"i": ["1", "1", "1", "1"]}}, "use_cudnn_on_gpu": {"b": true}, "explicit_paddings": {"list": {}}, "num_args": {"i": "1"}, "epsilon": {"f": 0.0}, "padding": {"s": "U0FNRQ=="}, "fused_ops": {"list": {"s": ["Qmlhc0FkZA=="]}}}}, {"name": "decoder/L4/estimator/build_estimator/disp-5/LeakyRelu", "op": "LeakyRelu", "input": ["decoder/L4/estimator/build_estimator/disp-5/BiasAdd"], "attr": {"T": {"type": "DT_FLOAT"}, "alpha": {"f": 0.2}}}, {"name": "decoder/L4/estimator/build_estimator/disp-6/BiasAdd", "op": "_FusedConv2D", "input": ["decoder/L4/estimator/build_estimator/disp-5/LeakyRelu", "decoder/L4/estimator/build_estimator/disp-6/weights", "decoder/L4/estimator/build_estimator/disp-6/biases"], "device": "/device:CPU:0", "attr": {"T": {"type": "DT_FLOAT"}, "data_format": {"s": "TkhXQw=="}, "strides": {"list": {"i": ["1", "1", "1", "1"]}}, "use_cudnn_on_gpu": {"b": true}, "explicit_paddings": {"list": {}}, "num_args": {"i": "1"}, "epsilon": {"f": 0.0}, "padding": {"s": "U0FNRQ=="}, "fused_ops": {"list": {"s": ["Qmlhc0FkZA=="]}}, "dilations": {"list": {"i": ["1", "1", "1", "1"]}}}}, {"name": "decoder/L4/estimator/build_estimator/disp-6/LeakyRelu", "op": "LeakyRelu", "input": ["decoder/L4/estimator/build_estimator/disp-6/BiasAdd"], "attr": {"T": {"type": "DT_FLOAT"}, "alpha": {"f": 0.2}}}, {"name": "decoder/L4/upsampler/bilinear_upsampling_by_convolution/resize/ResizeBilinear", "op": "ResizeBilinear", "input": ["decoder/L4/estimator/build_estimator/disp-6/LeakyRelu", "decoder/L4/upsampler/bilinear_upsampling_by_convolution/resize/size"], "attr": {"align_corners": {"b": false}, "half_pixel_centers": {"b": false}, "T": {"type": "DT_FLOAT"}}}, {"name": "decoder/L4/upsampler/bilinear_upsampling_by_convolution/BiasAdd", "op": "_FusedConv2D", "input": ["decoder/L4/upsampler/bilinear_upsampling_by_convolution/resize/ResizeBilinear", "decoder/L4/upsampler/bilinear_upsampling_by_convolution/weights", "decoder/L4/upsampler/bilinear_upsampling_by_convolution/biases"], "device": "/device:CPU:0", "attr": {"fused_ops": {"list": {"s": ["Qmlhc0FkZA=="]}}, "dilations": {"list": {"i": ["1", "1", "1", "1"]}}, "T": {"type": "DT_FLOAT"}, "strides": {"list": {"i": ["1", "1", "1", "1"]}}, "data_format": {"s": "TkhXQw=="}, "use_cudnn_on_gpu": {"b": true}, "explicit_paddings": {"list": {}}, "num_args": {"i": "1"}, "epsilon": {"f": 0.0}, "padding": {"s": "U0FNRQ=="}}}, {"name": "decoder/L4/upsampler/bilinear_upsampling_by_convolution/LeakyRelu", "op": "LeakyRelu", "input": ["decoder/L4/upsampler/bilinear_upsampling_by_convolution/BiasAdd"], "attr": {"T": {"type": "DT_FLOAT"}, "alpha": {"f": 0.2}}}, {"name": "decoder/L3/estimator/build_estimator/concat", "op": "ConcatV2", "input": ["encoder/conv3b/LeakyRelu", "decoder/L4/upsampler/bilinear_upsampling_by_convolution/LeakyRelu", "decoder/L2/estimator/build_estimator/concat/axis"], "attr": {"N": {"i": "2"}, "Tidx": {"type": "DT_INT32"}, "T": {"type": "DT_FLOAT"}}}, {"name": "decoder/L3/estimator/build_estimator/disp-3/BiasAdd", "op": "_FusedConv2D", "input": ["decoder/L3/estimator/build_estimator/concat", "decoder/L3/estimator/build_estimator/disp-3/weights", "decoder/L3/estimator/build_estimator/disp-3/biases"], "device": "/device:CPU:0", "attr": {"dilations": {"list": {"i": ["1", "1", "1", "1"]}}, "T": {"type": "DT_FLOAT"}, "data_format": {"s": "TkhXQw=="}, "strides": {"list": {"i": ["1", "1", "1", "1"]}}, "use_cudnn_on_gpu": {"b": true}, "explicit_paddings": {"list": {}}, "num_args": {"i": "1"}, "epsilon": {"f": 0.0}, "padding": {"s": "U0FNRQ=="}, "fused_ops": {"list": {"s": ["Qmlhc0FkZA=="]}}}}, {"name": "decoder/L3/estimator/build_estimator/disp-3/LeakyRelu", "op": "LeakyRelu", "input": ["decoder/L3/estimator/build_estimator/disp-3/BiasAdd"], "attr": {"alpha": {"f": 0.2}, "T": {"type": "DT_FLOAT"}}}, {"name": "decoder/L3/estimator/build_estimator/disp-4/BiasAdd", "op": "_FusedConv2D", "input": ["decoder/L3/estimator/build_estimator/disp-3/LeakyRelu", "decoder/L3/estimator/build_estimator/disp-4/weights", "decoder/L3/estimator/build_estimator/disp-4/biases"], "device": "/device:CPU:0", "attr": {"data_format": {"s": "TkhXQw=="}, "strides": {"list": {"i": ["1", "1", "1", "1"]}}, "use_cudnn_on_gpu": {"b": true}, "explicit_paddings": {"list": {}}, "num_args": {"i": "1"}, "epsilon": {"f": 0.0}, "padding": {"s": "U0FNRQ=="}, "fused_ops": {"list": {"s": ["Qmlhc0FkZA=="]}}, "dilations": {"list": {"i": ["1", "1", "1", "1"]}}, "T": {"type": "DT_FLOAT"}}}, {"name": "decoder/L3/estimator/build_estimator/disp-4/LeakyRelu", "op": "LeakyRelu", "input": ["decoder/L3/estimator/build_estimator/disp-4/BiasAdd"], "attr": {"T": {"type": "DT_FLOAT"}, "alpha": {"f": 0.2}}}, {"name": "decoder/L3/estimator/build_estimator/disp-5/BiasAdd", "op": "_FusedConv2D", "input": ["decoder/L3/estimator/build_estimator/disp-4/LeakyRelu", "decoder/L3/estimator/build_estimator/disp-5/weights", "decoder/L3/estimator/build_estimator/disp-5/biases"], "device": "/device:CPU:0", "attr": {"dilations": {"list": {"i": ["1", "1", "1", "1"]}}, "T": {"type": "DT_FLOAT"}, "data_format": {"s": "TkhXQw=="}, "strides": {"list": {"i": ["1", "1", "1", "1"]}}, "use_cudnn_on_gpu": {"b": true}, "explicit_paddings": {"list": {}}, "num_args": {"i": "1"}, "epsilon": {"f": 0.0}, "padding": {"s": "U0FNRQ=="}, "fused_ops": {"list": {"s": ["Qmlhc0FkZA=="]}}}}, {"name": "decoder/L3/estimator/build_estimator/disp-5/LeakyRelu", "op": "LeakyRelu", "input": ["decoder/L3/estimator/build_estimator/disp-5/BiasAdd"], "attr": {"T": {"type": "DT_FLOAT"}, "alpha": {"f": 0.2}}}, {"name": "decoder/L3/estimator/build_estimator/disp-6/BiasAdd", "op": "_FusedConv2D", "input": ["decoder/L3/estimator/build_estimator/disp-5/LeakyRelu", "decoder/L3/estimator/build_estimator/disp-6/weights", "decoder/L3/estimator/build_estimator/disp-6/biases"], "device": "/device:CPU:0", "attr": {"epsilon": {"f": 0.0}, "padding": {"s": "U0FNRQ=="}, "fused_ops": {"list": {"s": ["Qmlhc0FkZA=="]}}, "dilations": {"list": {"i": ["1", "1", "1", "1"]}}, "T": {"type": "DT_FLOAT"}, "strides": {"list": {"i": ["1", "1", "1", "1"]}}, "data_format": {"s": "TkhXQw=="}, "use_cudnn_on_gpu": {"b": true}, "explicit_paddings": {"list": {}}, "num_args": {"i": "1"}}}, {"name": "decoder/L3/estimator/build_estimator/disp-6/LeakyRelu", "op": "LeakyRelu", "input": ["decoder/L3/estimator/build_estimator/disp-6/BiasAdd"], "attr": {"alpha": {"f": 0.2}, "T": {"type": "DT_FLOAT"}}}, {"name": "decoder/L3/upsampler/bilinear_upsampling_by_convolution/resize/ResizeBilinear", "op": "ResizeBilinear", "input": ["decoder/L3/estimator/build_estimator/disp-6/LeakyRelu", "decoder/L3/upsampler/bilinear_upsampling_by_convolution/resize/size"], "attr": {"align_corners": {"b": false}, "half_pixel_centers": {"b": false}, "T": {"type": "DT_FLOAT"}}}, {"name": "decoder/L3/upsampler/bilinear_upsampling_by_convolution/BiasAdd", "op": "_FusedConv2D", "input": ["decoder/L3/upsampler/bilinear_upsampling_by_convolution/resize/ResizeBilinear", "decoder/L3/upsampler/bilinear_upsampling_by_convolution/weights", "decoder/L3/upsampler/bilinear_upsampling_by_convolution/biases"], "device": "/device:CPU:0", "attr": {"data_format": {"s": "TkhXQw=="}, "strides": {"list": {"i": ["1", "1", "1", "1"]}}, "use_cudnn_on_gpu": {"b": true}, "explicit_paddings": {"list": {}}, "num_args": {"i": "1"}, "epsilon": {"f": 0.0}, "padding": {"s": "U0FNRQ=="}, "fused_ops": {"list": {"s": ["Qmlhc0FkZA=="]}}, "dilations": {"list": {"i": ["1", "1", "1", "1"]}}, "T": {"type": "DT_FLOAT"}}}, {"name": "decoder/L3/upsampler/bilinear_upsampling_by_convolution/LeakyRelu", "op": "LeakyRelu", "input": ["decoder/L3/upsampler/bilinear_upsampling_by_convolution/BiasAdd"], "attr": {"alpha": {"f": 0.2}, "T": {"type": "DT_FLOAT"}}}, {"name": "decoder/L2/estimator/build_estimator/concat", "op": "ConcatV2", "input": ["encoder/conv2b/LeakyRelu", "decoder/L3/upsampler/bilinear_upsampling_by_convolution/LeakyRelu", "decoder/L2/estimator/build_estimator/concat/axis"], "attr": {"Tidx": {"type": "DT_INT32"}, "T": {"type": "DT_FLOAT"}, "N": {"i": "2"}}}, {"name": "decoder/L2/estimator/build_estimator/disp-3/BiasAdd", "op": "_FusedConv2D", "input": ["decoder/L2/estimator/build_estimator/concat", "decoder/L2/estimator/build_estimator/disp-3/weights", "decoder/L2/estimator/build_estimator/disp-3/biases"], "device": "/device:CPU:0", "attr": {"use_cudnn_on_gpu": {"b": true}, "explicit_paddings": {"list": {}}, "num_args": {"i": "1"}, "epsilon": {"f": 0.0}, "padding": {"s": "U0FNRQ=="}, "fused_ops": {"list": {"s": ["Qmlhc0FkZA=="]}}, "dilations": {"list": {"i": ["1", "1", "1", "1"]}}, "T": {"type": "DT_FLOAT"}, "strides": {"list": {"i": ["1", "1", "1", "1"]}}, "data_format": {"s": "TkhXQw=="}}}, {"name": "decoder/L2/estimator/build_estimator/disp-3/LeakyRelu", "op": "LeakyRelu", "input": ["decoder/L2/estimator/build_estimator/disp-3/BiasAdd"], "attr": {"T": {"type": "DT_FLOAT"}, "alpha": {"f": 0.2}}}, {"name": "decoder/L2/estimator/build_estimator/disp-4/BiasAdd", "op": "_FusedConv2D", "input": ["decoder/L2/estimator/build_estimator/disp-3/LeakyRelu", "decoder/L2/estimator/build_estimator/disp-4/weights", "decoder/L2/estimator/build_estimator/disp-4/biases"], "device": "/device:CPU:0", "attr": {"T": {"type": "DT_FLOAT"}, "strides": {"list": {"i": ["1", "1", "1", "1"]}}, "data_format": {"s": "TkhXQw=="}, "explicit_paddings": {"list": {}}, "use_cudnn_on_gpu": {"b": true}, "num_args": {"i": "1"}, "epsilon": {"f": 0.0}, "padding": {"s": "U0FNRQ=="}, "fused_ops": {"list": {"s": ["Qmlhc0FkZA=="]}}, "dilations": {"list": {"i": ["1", "1", "1", "1"]}}}}, {"name": "decoder/L2/estimator/build_estimator/disp-4/LeakyRelu", "op": "LeakyRelu", "input": ["decoder/L2/estimator/build_estimator/disp-4/BiasAdd"], "attr": {"alpha": {"f": 0.2}, "T": {"type": "DT_FLOAT"}}}, {"name": "decoder/L2/estimator/build_estimator/disp-5/BiasAdd", "op": "_FusedConv2D", "input": ["decoder/L2/estimator/build_estimator/disp-4/LeakyRelu", "decoder/L2/estimator/build_estimator/disp-5/weights", "decoder/L2/estimator/build_estimator/disp-5/biases"], "device": "/device:CPU:0", "attr": {"dilations": {"list": {"i": ["1", "1", "1", "1"]}}, "T": {"type": "DT_FLOAT"}, "strides": {"list": {"i": ["1", "1", "1", "1"]}}, "data_format": {"s": "TkhXQw=="}, "explicit_paddings": {"list": {}}, "use_cudnn_on_gpu": {"b": true}, "num_args": {"i": "1"}, "epsilon": {"f": 0.0}, "padding": {"s": "U0FNRQ=="}, "fused_ops": {"list": {"s": ["Qmlhc0FkZA=="]}}}}, {"name": "decoder/L2/estimator/build_estimator/disp-5/LeakyRelu", "op": "LeakyRelu", "input": ["decoder/L2/estimator/build_estimator/disp-5/BiasAdd"], "attr": {"T": {"type": "DT_FLOAT"}, "alpha": {"f": 0.2}}}, {"name": "decoder/L2/estimator/build_estimator/disp-6/BiasAdd", "op": "_FusedConv2D", "input": ["decoder/L2/estimator/build_estimator/disp-5/LeakyRelu", "decoder/L2/estimator/build_estimator/disp-6/weights", "decoder/L2/estimator/build_estimator/disp-6/biases"], "device": "/device:CPU:0", "attr": {"dilations": {"list": {"i": ["1", "1", "1", "1"]}}, "T": {"type": "DT_FLOAT"}, "data_format": {"s": "TkhXQw=="}, "strides": {"list": {"i": ["1", "1", "1", "1"]}}, "explicit_paddings": {"list": {}}, "use_cudnn_on_gpu": {"b": true}, "num_args": {"i": "1"}, "epsilon": {"f": 0.0}, "padding": {"s": "U0FNRQ=="}, "fused_ops": {"list": {"s": ["Qmlhc0FkZA=="]}}}}, {"name": "decoder/L2/estimator/build_estimator/disp-6/LeakyRelu", "op": "LeakyRelu", "input": ["decoder/L2/estimator/build_estimator/disp-6/BiasAdd"], "attr": {"T": {"type": "DT_FLOAT"}, "alpha": {"f": 0.2}}}, {"name": "decoder/L2/upsampler/bilinear_upsampling_by_convolution/resize/ResizeBilinear", "op": "ResizeBilinear", "input": ["decoder/L2/estimator/build_estimator/disp-6/LeakyRelu", "decoder/L2/upsampler/bilinear_upsampling_by_convolution/resize/size"], "attr": {"T": {"type": "DT_FLOAT"}, "align_corners": {"b": false}, "half_pixel_centers": {"b": false}}}, {"name": "decoder/L2/upsampler/bilinear_upsampling_by_convolution/BiasAdd", "op": "_FusedConv2D", "input": ["decoder/L2/upsampler/bilinear_upsampling_by_convolution/resize/ResizeBilinear", "decoder/L2/upsampler/bilinear_upsampling_by_convolution/weights", "decoder/L2/upsampler/bilinear_upsampling_by_convolution/biases"], "device": "/device:CPU:0", "attr": {"epsilon": {"f": 0.0}, "padding": {"s": "U0FNRQ=="}, "fused_ops": {"list": {"s": ["Qmlhc0FkZA=="]}}, "dilations": {"list": {"i": ["1", "1", "1", "1"]}}, "T": {"type": "DT_FLOAT"}, "data_format": {"s": "TkhXQw=="}, "strides": {"list": {"i": ["1", "1", "1", "1"]}}, "use_cudnn_on_gpu": {"b": true}, "explicit_paddings": {"list": {}}, "num_args": {"i": "1"}}}, {"name": "decoder/L2/upsampler/bilinear_upsampling_by_convolution/LeakyRelu", "op": "LeakyRelu", "input": ["decoder/L2/upsampler/bilinear_upsampling_by_convolution/BiasAdd"], "attr": {"alpha": {"f": 0.2}, "T": {"type": "DT_FLOAT"}}}, {"name": "decoder/L1/estimator/build_estimator/concat", "op": "ConcatV2", "input": ["encoder/conv1b/LeakyRelu", "decoder/L2/upsampler/bilinear_upsampling_by_convolution/LeakyRelu", "decoder/L2/estimator/build_estimator/concat/axis"], "attr": {"N": {"i": "2"}, "Tidx": {"type": "DT_INT32"}, "T": {"type": "DT_FLOAT"}}}, {"name": "decoder/L1/estimator/build_estimator/disp-3/BiasAdd", "op": "_FusedConv2D", "input": ["decoder/L1/estimator/build_estimator/concat", "decoder/L1/estimator/build_estimator/disp-3/weights", "decoder/L1/estimator/build_estimator/disp-3/biases"], "device": "/device:CPU:0", "attr": {"dilations": {"list": {"i": ["1", "1", "1", "1"]}}, "T": {"type": "DT_FLOAT"}, "data_format": {"s": "TkhXQw=="}, "strides": {"list": {"i": ["1", "1", "1", "1"]}}, "explicit_paddings": {"list": {}}, "use_cudnn_on_gpu": {"b": true}, "num_args": {"i": "1"}, "epsilon": {"f": 0.0}, "padding": {"s": "U0FNRQ=="}, "fused_ops": {"list": {"s": ["Qmlhc0FkZA=="]}}}}, {"name": "decoder/L1/estimator/build_estimator/disp-3/LeakyRelu", "op": "LeakyRelu", "input": ["decoder/L1/estimator/build_estimator/disp-3/BiasAdd"], "attr": {"T": {"type": "DT_FLOAT"}, "alpha": {"f": 0.2}}}, {"name": "decoder/L1/estimator/build_estimator/disp-4/BiasAdd", "op": "_FusedConv2D", "input": ["decoder/L1/estimator/build_estimator/disp-3/LeakyRelu", "decoder/L1/estimator/build_estimator/disp-4/weights", "decoder/L1/estimator/build_estimator/disp-4/biases"], "device": "/device:CPU:0", "attr": {"epsilon": {"f": 0.0}, "padding": {"s": "U0FNRQ=="}, "fused_ops": {"list": {"s": ["Qmlhc0FkZA=="]}}, "dilations": {"list": {"i": ["1", "1", "1", "1"]}}, "T": {"type": "DT_FLOAT"}, "strides": {"list": {"i": ["1", "1", "1", "1"]}}, "data_format": {"s": "TkhXQw=="}, "use_cudnn_on_gpu": {"b": true}, "explicit_paddings": {"list": {}}, "num_args": {"i": "1"}}}, {"name": "decoder/L1/estimator/build_estimator/disp-4/LeakyRelu", "op": "LeakyRelu", "input": ["decoder/L1/estimator/build_estimator/disp-4/BiasAdd"], "attr": {"T": {"type": "DT_FLOAT"}, "alpha": {"f": 0.2}}}, {"name": "decoder/L1/estimator/build_estimator/disp-5/BiasAdd", "op": "_FusedConv2D", "input": ["decoder/L1/estimator/build_estimator/disp-4/LeakyRelu", "decoder/L1/estimator/build_estimator/disp-5/weights", "decoder/L1/estimator/build_estimator/disp-5/biases"], "device": "/device:CPU:0", "attr": {"dilations": {"list": {"i": ["1", "1", "1", "1"]}}, "T": {"type": "DT_FLOAT"}, "data_format": {"s": "TkhXQw=="}, "strides": {"list": {"i": ["1", "1", "1", "1"]}}, "explicit_paddings": {"list": {}}, "use_cudnn_on_gpu": {"b": true}, "num_args": {"i": "1"}, "epsilon": {"f": 0.0}, "padding": {"s": "U0FNRQ=="}, "fused_ops": {"list": {"s": ["Qmlhc0FkZA=="]}}}}, {"name": "decoder/L1/estimator/build_estimator/disp-5/LeakyRelu", "op": "LeakyRelu", "input": ["decoder/L1/estimator/build_estimator/disp-5/BiasAdd"], "attr": {"alpha": {"f": 0.2}, "T": {"type": "DT_FLOAT"}}}, {"name": "decoder/L1/estimator/build_estimator/disp-6/BiasAdd", "op": "_FusedConv2D", "input": ["decoder/L1/estimator/build_estimator/disp-5/LeakyRelu", "decoder/L1/estimator/build_estimator/disp-6/weights", "decoder/L1/estimator/build_estimator/disp-6/biases"], "device": "/device:CPU:0", "attr": {"T": {"type": "DT_FLOAT"}, "strides": {"list": {"i": ["1", "1", "1", "1"]}}, "data_format": {"s": "TkhXQw=="}, "explicit_paddings": {"list": {}}, "use_cudnn_on_gpu": {"b": true}, "num_args": {"i": "1"}, "epsilon": {"f": 0.0}, "padding": {"s": "U0FNRQ=="}, "fused_ops": {"list": {"s": ["Qmlhc0FkZA=="]}}, "dilations": {"list": {"i": ["1", "1", "1", "1"]}}}}, {"name": "decoder/L1/estimator/build_estimator/disp-6/LeakyRelu", "op": "LeakyRelu", "input": ["decoder/L1/estimator/build_estimator/disp-6/BiasAdd"], "attr": {"alpha": {"f": 0.2}, "T": {"type": "DT_FLOAT"}}}, {"name": "decoder/L1/estimator/get_disp/BiasAdd", "op": "_FusedConv2D", "input": ["decoder/L1/estimator/build_estimator/disp-6/LeakyRelu", "decoder/L1/estimator/get_disp/weights", "decoder/L1/estimator/get_disp/biases"], "device": "/device:CPU:0", "attr": {"dilations": {"list": {"i": ["1", "1", "1", "1"]}}, "T": {"type": "DT_FLOAT"}, "data_format": {"s": "TkhXQw=="}, "strides": {"list": {"i": ["1", "1", "1", "1"]}}, "explicit_paddings": {"list": {}}, "use_cudnn_on_gpu": {"b": true}, "num_args": {"i": "1"}, "epsilon": {"f": 0.0}, "padding": {"s": "U0FNRQ=="}, "fused_ops": {"list": {"s": ["Qmlhc0FkZA=="]}}}}, {"name": "decoder/half/resize/ResizeBilinear", "op": "ResizeBilinear", "input": ["decoder/L1/estimator/get_disp/BiasAdd", "decoder/half/resize/size"], "attr": {"align_corners": {"b": false}, "half_pixel_centers": {"b": false}, "T": {"type": "DT_FLOAT"}}}], "versions": {}}, "weightsManifest": [{"paths": ["group1-shard1of2.bin", "group1-shard2of2.bin"], "weights": [{"name": "encoder/conv1a/weights", "shape": [3, 3, 3, 16], "dtype": "float32"}, {"name": "decoder/L3/upsampler/bilinear_upsampling_by_convolution/weights", "shape": [2, 2, 8, 8], "dtype": "float32"}, {"name": "encoder/conv1a/biases", "shape": [16], "dtype": "float32"}, {"name": "decoder/L1/estimator/build_estimator/disp-5/weights", "shape": [3, 3, 64, 32], "dtype": "float32"}, {"name": "encoder/conv1b/weights", "shape": [3, 3, 16, 16], "dtype": "float32"}, {"name": "decoder/L3/estimator/build_estimator/disp-6/biases", "shape": [8], "dtype": "float32"}, {"name": "encoder/conv1b/biases", "shape": [16], "dtype": "float32"}, {"name": "decoder/L3/upsampler/bilinear_upsampling_by_convolution/biases", "shape": [8], "dtype": "float32"}, {"name": "encoder/conv2a/weights", "shape": [3, 3, 16, 32], "dtype": "float32"}, {"name": "encoder/conv2a/biases", "shape": [32], "dtype": "float32"}, {"name": "encoder/conv2b/weights", "shape": [3, 3, 32, 32], "dtype": "float32"}, {"name": "encoder/conv2b/biases", "shape": [32], "dtype": "float32"}, {"name": "decoder/L2/estimator/build_estimator/concat/axis", "shape": [], "dtype": "int32"}, {"name": "encoder/conv3a/weights", "shape": [3, 3, 32, 64], "dtype": "float32"}, {"name": "decoder/L3/upsampler/bilinear_upsampling_by_convolution/resize/size", "shape": [2], "dtype": "int32"}, {"name": "encoder/conv3a/biases", "shape": [64], "dtype": "float32"}, {"name": "decoder/L2/estimator/build_estimator/disp-3/weights", "shape": [3, 3, 40, 96], "dtype": "float32"}, {"name": "encoder/conv3b/weights", "shape": [3, 3, 64, 64], "dtype": "float32"}, {"name": "encoder/conv3b/biases", "shape": [64], "dtype": "float32"}, {"name": "encoder/conv4a/weights", "shape": [3, 3, 64, 96], "dtype": "float32"}, {"name": "decoder/L2/estimator/build_estimator/disp-3/biases", "shape": [96], "dtype": "float32"}, {"name": "encoder/conv4a/biases", "shape": [96], "dtype": "float32"}, {"name": "decoder/L1/estimator/build_estimator/disp-5/biases", "shape": [32], "dtype": "float32"}, {"name": "encoder/conv4b/weights", "shape": [3, 3, 96, 96], "dtype": "float32"}, {"name": "encoder/conv4b/biases", "shape": [96], "dtype": "float32"}, {"name": "encoder/conv5a/weights", "shape": [3, 3, 96, 128], "dtype": "float32"}, {"name": "decoder/L2/estimator/build_estimator/disp-4/weights", "shape": [3, 3, 96, 64], "dtype": "float32"}, {"name": "encoder/conv5a/biases", "shape": [128], "dtype": "float32"}, {"name": "decoder/L1/estimator/get_disp/biases", "shape": [1], "dtype": "float32"}, {"name": "encoder/conv5b/weights", "shape": [3, 3, 128, 128], "dtype": "float32"}, {"name": "encoder/conv5b/biases", "shape": [128], "dtype": "float32"}, {"name": "decoder/L2/estimator/build_estimator/disp-4/biases", "shape": [64], "dtype": "float32"}, {"name": "encoder/conv6a/weights", "shape": [3, 3, 128, 192], "dtype": "float32"}, {"name": "encoder/conv6a/biases", "shape": [192], "dtype": "float32"}, {"name": "encoder/conv6b/weights", "shape": [3, 3, 192, 192], "dtype": "float32"}, {"name": "encoder/conv6b/biases", "shape": [192], "dtype": "float32"}, {"name": "decoder/L2/estimator/build_estimator/disp-5/weights", "shape": [3, 3, 64, 32], "dtype": "float32"}, {"name": "decoder/L6/estimator/build_estimator/disp-3/weights", "shape": [3, 3, 192, 96], "dtype": "float32"}, {"name": "decoder/L6/estimator/build_estimator/disp-3/biases", "shape": [96], "dtype": "float32"}, {"name": "decoder/L6/estimator/build_estimator/disp-4/weights", "shape": [3, 3, 96, 64], "dtype": "float32"}, {"name": "decoder/L2/estimator/build_estimator/disp-5/biases", "shape": [32], "dtype": "float32"}, {"name": "decoder/L6/estimator/build_estimator/disp-4/biases", "shape": [64], "dtype": "float32"}, {"name": "decoder/L1/estimator/build_estimator/disp-6/weights", "shape": [3, 3, 32, 8], "dtype": "float32"}, {"name": "decoder/L6/estimator/build_estimator/disp-5/weights", "shape": [3, 3, 64, 32], "dtype": "float32"}, {"name": "decoder/L6/estimator/build_estimator/disp-5/biases", "shape": [32], "dtype": "float32"}, {"name": "decoder/L6/estimator/build_estimator/disp-6/weights", "shape": [3, 3, 32, 8], "dtype": "float32"}, {"name": "decoder/L2/estimator/build_estimator/disp-6/weights", "shape": [3, 3, 32, 8], "dtype": "float32"}, {"name": "decoder/L6/estimator/build_estimator/disp-6/biases", "shape": [8], "dtype": "float32"}, {"name": "decoder/L6/upsampler/bilinear_upsampling_by_convolution/resize/size", "shape": [2], "dtype": "int32"}, {"name": "decoder/L6/upsampler/bilinear_upsampling_by_convolution/weights", "shape": [2, 2, 8, 8], "dtype": "float32"}, {"name": "decoder/L6/upsampler/bilinear_upsampling_by_convolution/biases", "shape": [8], "dtype": "float32"}, {"name": "decoder/L2/estimator/build_estimator/disp-6/biases", "shape": [8], "dtype": "float32"}, {"name": "decoder/L5/estimator/build_estimator/disp-3/weights", "shape": [3, 3, 136, 96], "dtype": "float32"}, {"name": "decoder/L5/estimator/build_estimator/disp-3/biases", "shape": [96], "dtype": "float32"}, {"name": "decoder/L5/estimator/build_estimator/disp-4/weights", "shape": [3, 3, 96, 64], "dtype": "float32"}, {"name": "decoder/L5/estimator/build_estimator/disp-4/biases", "shape": [64], "dtype": "float32"}, {"name": "decoder/L2/upsampler/bilinear_upsampling_by_convolution/resize/size", "shape": [2], "dtype": "int32"}, {"name": "decoder/L5/estimator/build_estimator/disp-5/weights", "shape": [3, 3, 64, 32], "dtype": "float32"}, {"name": "decoder/L5/estimator/build_estimator/disp-5/biases", "shape": [32], "dtype": "float32"}, {"name": "decoder/L2/upsampler/bilinear_upsampling_by_convolution/weights", "shape": [2, 2, 8, 8], "dtype": "float32"}, {"name": "decoder/L5/estimator/build_estimator/disp-6/weights", "shape": [3, 3, 32, 8], "dtype": "float32"}, {"name": "decoder/L1/estimator/build_estimator/disp-6/biases", "shape": [8], "dtype": "float32"}, {"name": "decoder/L5/estimator/build_estimator/disp-6/biases", "shape": [8], "dtype": "float32"}, {"name": "decoder/L5/upsampler/bilinear_upsampling_by_convolution/resize/size", "shape": [2], "dtype": "int32"}, {"name": "decoder/L5/upsampler/bilinear_upsampling_by_convolution/weights", "shape": [2, 2, 8, 8], "dtype": "float32"}, {"name": "decoder/L2/upsampler/bilinear_upsampling_by_convolution/biases", "shape": [8], "dtype": "float32"}, {"name": "decoder/L5/upsampler/bilinear_upsampling_by_convolution/biases", "shape": [8], "dtype": "float32"}, {"name": "decoder/L4/estimator/build_estimator/disp-3/weights", "shape": [3, 3, 104, 96], "dtype": "float32"}, {"name": "decoder/L4/estimator/build_estimator/disp-3/biases", "shape": [96], "dtype": "float32"}, {"name": "decoder/L4/estimator/build_estimator/disp-4/weights", "shape": [3, 3, 96, 64], "dtype": "float32"}, {"name": "decoder/L4/estimator/build_estimator/disp-4/biases", "shape": [64], "dtype": "float32"}, {"name": "decoder/L4/estimator/build_estimator/disp-5/weights", "shape": [3, 3, 64, 32], "dtype": "float32"}, {"name": "decoder/L1/estimator/build_estimator/disp-3/weights", "shape": [3, 3, 24, 96], "dtype": "float32"}, {"name": "decoder/L4/estimator/build_estimator/disp-5/biases", "shape": [32], "dtype": "float32"}, {"name": "decoder/L4/estimator/build_estimator/disp-6/weights", "shape": [3, 3, 32, 8], "dtype": "float32"}, {"name": "decoder/L4/estimator/build_estimator/disp-6/biases", "shape": [8], "dtype": "float32"}, {"name": "decoder/L1/estimator/build_estimator/disp-3/biases", "shape": [96], "dtype": "float32"}, {"name": "decoder/L4/upsampler/bilinear_upsampling_by_convolution/resize/size", "shape": [2], "dtype": "int32"}, {"name": "decoder/L4/upsampler/bilinear_upsampling_by_convolution/weights", "shape": [2, 2, 8, 8], "dtype": "float32"}, {"name": "decoder/L4/upsampler/bilinear_upsampling_by_convolution/biases", "shape": [8], "dtype": "float32"}, {"name": "decoder/L3/estimator/build_estimator/disp-3/weights", "shape": [3, 3, 72, 96], "dtype": "float32"}, {"name": "decoder/L3/estimator/build_estimator/disp-3/biases", "shape": [96], "dtype": "float32"}, {"name": "decoder/L1/estimator/build_estimator/disp-4/weights", "shape": [3, 3, 96, 64], "dtype": "float32"}, {"name": "decoder/L3/estimator/build_estimator/disp-4/weights", "shape": [3, 3, 96, 64], "dtype": "float32"}, {"name": "decoder/L1/estimator/get_disp/weights", "shape": [3, 3, 8, 1], "dtype": "float32"}, {"name": "decoder/L3/estimator/build_estimator/disp-4/biases", "shape": [64], "dtype": "float32"}, {"name": "decoder/L3/estimator/build_estimator/disp-5/weights", "shape": [3, 3, 64, 32], "dtype": "float32"}, {"name": "decoder/L1/estimator/build_estimator/disp-4/biases", "shape": [64], "dtype": "float32"}, {"name": "decoder/L3/estimator/build_estimator/disp-5/biases", "shape": [32], "dtype": "float32"}, {"name": "decoder/half/resize/size", "shape": [2], "dtype": "int32"}, {"name": "decoder/L3/estimator/build_estimator/disp-6/weights", "shape": [3, 3, 32, 8], "dtype": "float32"}]}]}